Models/MLP/mlp_model.pth (torch, 66643 bytes, 10 tensors)

0.weight f4 [128, 50]
0	0xbd2d7026	-0.04234328
1	0xbe041057	-0.12896858
2	0x3d9ca73b	0.07649084
3	0xbc049ff2	-0.008094775
4	0xbdbafd61	-0.091303594
5	0xbe09d9db	-0.13462012
6	0x3bf3ad01	0.007436395
7	0xbd9fb1d3	-0.07797589
8	0x3b07e27a	0.0020734356
9	0xbdb898b5	-0.090135016
10	0xbe08124f	-0.13288234
11	0x3d9650f1	0.07339657
12	0x3dcbcccb	0.099511705
13	0xbd8bc9e5	-0.06825618
14	0x3c8d9d19	0.017286824
15	0x3d8f40e6	0.069948
16	0x3d944d87	0.0724135
17	0xbd7562c0	-0.05990863
18	0x3cc1c996	0.023655694
19	0x3c1ef1c7	0.009701199
20	0xbd9e2f15	-0.07723824
21	0x3a68746b	0.0008867445
22	0x3d42530f	0.047442492
23	0xbdc70a84	-0.097188026
24	0xbc931050	-0.017952114
25	0x3d002dbc	0.031293616
26	0x3dabef0e	0.083952054
27	0xbe1eba59	-0.15500773
28	0xbda8e6e2	-0.082471624
29	0x3d8f7520	0.07004762
30	0x3dbdadb4	0.09261647
31	0x3d9ee2e3	0.07758119
32	0x3dda727e	0.10666369
33	0x3dc72f27	0.097257905
34	0x3db94371	0.090460666
35	0x3d1af60e	0.037832312
36	0x3d9a0612	0.07520689
37	0xbc1317a3	-0.008977803
38	0xbd93f046	-0.07223563
39	0x3dde1f76	0.108458444
40	0x3c8e6e2a	0.017386515
41	0xbd46eae1	-0.04856384
42	0xbd85ac15	-0.06526963
43	0xba82e03e	-0.0009985042
44	0xbd9f8484	-0.07788947
45	0xbd928f92	-0.0715629
46	0x3d62e16e	0.055390768
47	0x3bffa724	0.007801907
48	0xbdbe2879	-0.09285063
49	0xbd1e3d93	-0.03863294
50	0x3d5d98fa	0.054100968
51	0x3d7d2fa8	0.061813027
52	0xbd8924f7	-0.066965036
53	0x3dbb07b7	0.09132331
54	0x3dae94de	0.08524488
55	0xbd6d4d1e	-0.057934873
56	0x3db46403	0.08808138
57	0xbe14ff6e	-0.14550564
58	0xbd76ee08	-0.060285598
59	0x3d526df6	0.0513744
60	0x3de7d37e	0.11319636
61	0xbe06d3e1	-0.13166763
62	0x3d45379d	0.04814874
63	0x3cdfd1ca	0.027321715
64	0x3ded6340	0.11591196
65	0xbd62650f	-0.05527216
66	0xbdf4a020	-0.11944604
67	0xbdd4a87a	-0.10383697
68	0x3d235819	0.03987894
69	0xbde4b88f	-0.11168014
70	0x3cc5d76b	0.02415057
71	0xbde165e6	-0.11005764
72	0xbdd7c641	-0.10535861
73	0x3d555dfe	0.05209159
74	0x3db0e9c7	0.086383395
75	0xbdff207f	-0.1245737
76	0xbd879873	-0.06620874
77	0x3dc3a571	0.0955304
78	0x3dbce8a6	0.09224062
79	0xbd168db6	-0.03675624
80	0xbd7783f8	-0.06042859
81	0x3d948f9f	0.07253956
82	0x3db94686	0.090466544
83	0xbd35dac2	-0.044398077
84	0x3d486e6e	0.04893344
85	0x3c2ea9c5	0.010660593
86	0x3e047e9a	0.1293892
87	0x3dd51b17	0.104055576
88	0x3e102aed	0.14078875
89	0xbddeabe2	-0.10872628
90	0xbd02b9ae	-0.03191536
91	0xbd08970e	-0.033347182
92	0xbe23e5e3	-0.16005664
93	0x3d439216	0.04774674
94	0xbddcade1	-0.10775352
95	0x3c8b8bbc	0.017034404
96	0xbca9b812	-0.020717654
97	0xbdc2f476	-0.095192835
98	0xbd623036	-0.05522176
99	0xbdaea329	-0.08527214
100	0x3e02eced	0.12785693
101	0x3cb663fb	0.022264471
102	0xbe0da4c0	-0.13832378
103	0x3d66a08d	0.056305457
104	0xbcf5e2db	-0.0300154
105	0x3db91c5e	0.09038614
106	0x3de7ca08	0.11317831
107	0xbd374c78	-0.04475066
108	0xbda75301	-0.081701286
109	0xbd88cc26	-0.06679563
110	0x3d086d16	0.033307157
111	0x3dc25844	0.094894916
112	0xbe00302a	-0.12518373
113	0x3e03c2b0	0.12867236
114	0xbce38678	-0.02777408
115	0xbcbbb9b7	-0.022915704
116	0x3de5eec5	0.11227182
117	0x3be12df4	0.006871933
118	0x3e05d9a1	0.130713
119	0xbd9f3ee5	-0.07775668
120	0xbde362e1	-0.11102844
121	0x3d9b201f	0.07574486
122	0xbdb4c571	-0.088267215
123	0x3d308c5f	0.04310262
124	0x3d8749c5	0.06605867
125	0xbdbbdfc4	-0.09173539
126	0x3dc5171a	0.09623547
127	0x3c284cd1	0.010272221
128	0x3dc9349c	0.098244876
129	0x3d9e790a	0.0773793
130	0x3de7769f	0.11301922
131	0x3de7ae3e	0.11312531
132	0xbdc315e0	-0.09525657
133	0x3df7468a	0.12074001
134	0x3d19b815	0.03752907
135	0xbd990291	-0.07471193
136	0xbd5851cd	-0.052812386
137	0xbde54170	-0.11194122
138	0xbdff3f48	-0.12463242
139	0x3d3ec767	0.046576884
140	0xbe0ec387	-0.13941775
141	0x3cbb5236	0.02286635
142	0xbd1aad41	-0.037762884
143	0x3daf3e79	0.085568376
144	0xbcba9e48	-0.022780553
145	0x3cf76740	0.0302006
146	0xbe048cbe	-0.12944314
147	0xbcffb8bd	-0.03121602
148	0x3e10c694	0.14138252
149	0xbe08b5b5	-0.13350566
150	0xbd5907d9	-0.052986
151	0xbd6f8913	-0.058480334
152	0x3d284629	0.041082535
153	0xbe14d2af	-0.14533494
154	0x3d02ef46	0.03196647
155	0x3e0c8dcf	0.1372597
156	0xbcffc861	-0.031223478
157	0xbbcb4318	-0.0062030666
158	0x3e2c97b8	0.16854751
159	0xbe0a2c63	-0.13493495
160	0xbd18915e	-0.037248008
161	0x3dd20d25	0.10256413
162	0xbdcfcffd	-0.101470925
163	0xbcdcc1fc	-0.026947968
164	0xbd059da1	-0.03262103
165	0xb75e256e	-1.3240946e-05
166	0x3d8452ca	0.06461103
167	0x3d97cf30	0.07412565
168	0x3da97182	0.08273603
169	0x3cfae8a6	0.030628514
170	0xbdb04b1e	-0.086080775
171	0xbd2f383a	-0.04277823
172	0x3caf71e5	0.021416614
173	0xbd9cf5f3	-0.076640986
174	0xbde057d7	-0.10954254
175	0x3da2c5ff	0.07947921
176	0xbcc542b8	-0.024079666
177	0x3cbd42db	0.023103168
178	0xbdd5225f	-0.104069464
179	0xbddf2751	-0.10896171
180	0xbdb9e911	-0.09077657
181	0xbd802af1	-0.062581904
182	0x3df6e647	0.12055641
183	0xbe26a5fa	-0.16274253
184	0x3d1a1b6b	0.037623804
185	0x3e14bf89	0.1452619
186	0xbde78356	-0.11304347
187	0xbdb5d08c	-0.08877668
188	0xbdd5bdc4	-0.104365855
189	0x3d68098b	0.056649726
190	0x3ddcc3e6	0.10779552
191	0xbd14a830	-0.03629321
192	0xbdb1c786	-0.08680634
193	0xbd7c6fd5	-0.06163009
194	0x3d46bcea	0.048520006
195	0x3d9c4c91	0.076317914
196	0xbd2a7516	-0.041615568
197	0xbdedda31	-0.11613882
198	0xbe082ea9	-0.1329905
199	0xbdf416bd	-0.119183995
200	0x3dca4d37	0.09878009
201	0x3d876a35	0.06612054
202	0x3d97a3b0	0.07404268
203	0x3d7ae357	0.061251964
204	0x3db4b0a6	0.088227555
205	0xbda84fef	-0.08218371
206	0xbb8daafe	-0.0043233624
207	0x3d1ace92	0.037794657
208	0x3d81325d	0.06308434
209	0xbb2d0aa1	-0.002640404
210	0x3dd8fd8f	0.105952375
211	0x3d8539c0	0.065051556
212	0xbc60c7fb	-0.013719554
213	0xbdd47b5c	-0.103750914
214	0xbdafb470	-0.085793376
215	0x3d8bddc3	0.06829407
216	0xbe1cfbd8	-0.15330446
217	0x3dd92ccf	0.1060425
218	0x3dff0d54	0.12453714
219	0xbda94891	-0.08265794
220	0xbd0afa55	-0.03393014
221	0x3cb27e3d	0.02178871
222	0x3e15b288	0.14618886
223	0xbd3866ae	-0.045019798
224	0xbe0f6a19	-0.14005317
225	0x3e08c1c1	0.13355161
226	0x3da18962	0.07887532
227	0x3ddb571e	0.10709976
228	0x3cf0f9f8	0.02941607
229	0x3c43452a	0.0119183455
230	0x3cbab8b5	0.022793153
231	0xbd400cfa	-0.046887375
232	0x3d5a7970	0.053338468
233	0xbc868def	-0.016425101
234	0xbe083b81	-0.13303949
235	0x3b85ab1c	0.0040792357
236	0x3c56d22d	0.013111633
237	0x3cf5267b	0.029925575
238	0x3e0bd2b9	0.13654603
239	0x3d3a5065	0.045486826
240	0x3dc35598	0.0953781
241	0x3db70bad	0.08937774
242	0xbdc02ccc	-0.09383544
243	0x3d0a3e97	0.033751097
244	0x3d0517d2	0.03249342
245	0xbe00ad4c	-0.12566108
246	0xbdc93346	-0.09824233
247	0xbe1f9ca1	-0.15587093
248	0xbc6eb9bf	-0.0145706525
249	0xbd79c577	-0.060979333
250	0xbcda590c	-0.026653789
251	0xbde89476	-0.11356442
252	0x3d1d2b42	0.038371332
253	0xbe4cd397	-0.2000259
254	0x3beb9b2a	0.007190128
255	0x3df250ae	0.11831795

0.bias f4 [128]
0	0xbdee9f56	-0.11651485
1	0x3e04709f	0.12933587
2	0x3dd11f7a	0.10211082
3	0x3df880da	0.121339515
4	0x3ddd6550	0.108103395
5	0x3dc492e5	0.095983304
6	0xbc3ae651	-0.011407451
7	0x3ded4b07	0.11586576
8	0x3d48277c	0.04886578
9	0xbdbe1144	-0.09280637
10	0xbd58befa	-0.052916504
11	0xbdd8682d	-0.10566745
12	0x3c056a6b	0.008143048
13	0x3d3cd71e	0.04610359
14	0xb9cd4ee7	-0.00039159434
15	0xbdeb09c9	-0.11476476
16	0xbe0495f9	-0.12947835
17	0x3db360d7	0.08758705
18	0xbd585589	-0.052815948
19	0x3d1cfb12	0.038325377
20	0x3cc10f2b	0.023566803
21	0xbd41302f	-0.047165092
22	0xbd879584	-0.06620315
23	0xbe002e8f	-0.1251776
24	0x3cc0046b	0.023439607
25	0x3d04b8b7	0.03240272
26	0xbdd88655	-0.10572497
27	0xbb57fff8	-0.0032958966
28	0x3e0699cb	0.13144605
29	0xbd0e9d97	-0.034818258
30	0xbd8ecdbe	-0.06972836
31	0x3df70964	0.12062338
32	0xbd3b887c	-0.04578446
33	0xbdf2cc72	-0.11855401
34	0xbb6b39db	-0.003589264
35	0xbc5f552e	-0.013631148
36	0x3afae601	0.0019142033
37	0x3da5a1ea	0.08087523
38	0xbde34d46	-0.11098723
39	0xbd9cd9f8	-0.07658762
40	0x3d18e76d	0.03733008
41	0xbda947b2	-0.08265628
42	0xbdc13137	-0.09433215
43	0x3e0aeaaa	0.1356608
44	0xbd872561	-0.06598926
45	0xbcd0b09c	-0.025474839
46	0xbd2b5cdf	-0.041836616
47	0xbdeac362	-0.114630476
48	0x3da5e4cf	0.081002824
49	0xbd49712e	-0.049180202
50	0x3c2f6433	0.010705042
51	0xbd488888	-0.04895833
52	0xbe093972	-0.1340082
53	0x3cc771db	0.024346283
54	0x3de49730	0.11161649
55	0x3e01a2aa	0.12659708
56	0x3bafe92e	0.0053683734
57	0x3cf2e6de	0.029651102
58	0xbe08fcf9	-0.13377751
59	0x3db8cfc3	0.090240024
60	0xbcc77498	-0.024347588
61	0x3b32d6d1	0.0027288685
62	0x3d564715	0.052313883
63	0xbd0557ca	-0.032554425
64	0x3cd9c3f6	0.0265827
65	0x3d0c806c	0.03430216
66	0xbdf51f6c	-0.11968884
67	0xbcd400a2	-0.025879208
68	0xbdf936b8	-0.1216864
69	0xbd89aaef	-0.06722056
70	0xbd66af49	-0.05631951
71	0xbd0f13d4	-0.03493102
72	0x3d5d6172	0.05404801
73	0xbdd84646	-0.105602786
74	0x3deb1fad	0.11480651
75	0xbcd0daef	-0.02549502
76	0xbd8e4748	-0.069471896
77	0x3ddd9d84	0.10821059
78	0xbd766921	-0.060158852
79	0xbc972e46	-0.018454682
80	0xbd810c39	-0.063011594
81	0xbdc4e73f	-0.09614419
82	0xbdf13653	-0.1177794
83	0xbe037a9f	-0.12839745
84	0x3d937e0a	0.072017744
85	0x3dd38f83	0.10330107
86	0x3a20148a	0.0006106576
87	0x3d934651	0.07191146
88	0xbdaf42eb	-0.085576855
89	0x3d75c851	0.06000549
90	0x3d6f0dba	0.0583627
91	0xbcc7c3b2	-0.024385307
92	0x3cca8e57	0.024726076
93	0x3e034e29	0.12822784
94	0x3dd4b411	0.103859074
95	0xbe09f5f4	-0.1347273
96	0x3d582817	0.052772608
97	0xbda34b4f	-0.07973348
98	0xbe03dd37	-0.12877356
99	0xbd38c6de	-0.04511153
100	0x3e19cd68	0.15019763
101	0xbd9ab8c1	-0.0755477
102	0x3dc870d7	0.097871475
103	0xbc812a2e	-0.015767183
104	0x3dae5709	0.085126944
105	0xbdcd5270	-0.10025489
106	0x3dfa5a22	0.12224223
107	0xbd9a2a5b	-0.0752761
108	0x3e114e55	0.14190038
109	0xbd584341	-0.052798513
110	0x3cfcf1a2	0.030876938
111	0xbd7de32e	-0.061984234
112	0xbe02c897	-0.12771831
113	0x3ca9b2bc	0.02071511
114	0x3d22f7c4	0.03978707
115	0xbdd5d3cc	-0.10440788
116	0x3d9b1b07	0.075735144
117	0x3df49e43	0.119442485
118	0x3c03ce0c	0.008044731
119	0xbd548a2c	-0.051889583
120	0xbc2761a2	-0.010216149
121	0xbd918eb0	-0.071072936
122	0xbdbda95a	-0.09260817
123	0x3c7ef4ba	0.015561277
124	0xbe04d6ff	-0.1297264
125	0xbb58f277	-0.0033103505
126	0xbdb6805b	-0.089112006
127	0x3b1c7caa	0.0023878017

2.weight f4 [64, 128]
0	0xbd033af5	-0.032038648
1	0x3b633982	0.0034671728
2	0xbd503e51	-0.05084068
3	0x3cea4e39	0.028601753
4	0x3d002206	0.031282447
5	0xbc854b0a	-0.016271133
6	0xbcdd32be	-0.027001735
7	0xbd81569b	-0.06315347
8	0xbc552f36	-0.013011744
9	0xbb731185	-0.00370893
10	0x3cfc8fc9	0.03083028
11	0xbd383e79	-0.044981454
12	0xbc18ac87	-0.0093184775
13	0xbbb15aae	-0.005412421
14	0x3d4e030f	0.050295886
15	0x3a634164	0.0008669107
16	0xb9f65c40	-0.00046989508
17	0xbce2ee14	-0.027701415
18	0x3de76467	0.11298447
19	0x3d25b412	0.04045493
20	0xbd609a6c	-0.05483477
21	0xbb423baf	-0.0029637625
22	0xbd813b0c	-0.063100904
23	0x3c31dff9	0.010856622
24	0x3cf48d3a	0.029852498
25	0x3dd86c42	0.105675235
26	0xbcb715be	-0.022349235
27	0x3cf96467	0.030443383
28	0x3c3799f4	0.011206139
29	0xbcb23de4	-0.021758027
30	0xbdaba850	-0.083817124
31	0x3dbb0c17	0.09133165
32	0xbb3877e0	-0.0028147623
33	0x3dd7299f	0.105059855
34	0x3da5131d	0.08060286
35	0xbd74b99e	-0.05974733
36	0x38b03d2f	8.40373e-05
37	0xbda8f12d	-0.08249126
38	0x3b715652	0.0036825133
39	0x3da23218	0.07919711
40	0x3d6db1e5	0.05803098
41	0xbd8f4a8d	-0.06996641
42	0x3d1f1e0b	0.03884701
43	0xbd0258a3	-0.03182281
44	0x3d9823ac	0.07428679
45	0xbd27bef2	-0.040953584
46	0xbd68a9e8	-0.05680266
47	0xbccb81fa	-0.024842251
48	0xbdf12173	-0.11773958
49	0xbc0d2884	-0.008615617
50	0x3d4d0e86	0.05006268
51	0x3daddb5a	0.084891036
52	0xbbb587b1	-0.0055398573
53	0x3afff414	0.0019527697
54	0xbc04248e	-0.008065356
55	0x3c9e9953	0.01936022
56	0xbd9cbc4c	-0.07653102
57	0xbcf4ef78	-0.029899344
58	0x3d76d456	0.060261093
59	0x3c53b0b5	0.012920548
60	0xbd35673a	-0.044287898
61	0xbc4e6e37	-0.012599519
62	0xbb1e4aac	-0.0024153395
63	0xbd7f7347	-0.062365796
64	0x3c830e27	0.01599796
65	0xbdc2eae1	-0.09517456
66	0x3d3a3d6e	0.04546874
67	0xbd3eb43c	-0.046558604
68	0xba88deae	-0.001044234
69	0xbc27c529	-0.010239878
70	0x3c9bf30c	0.019036792
71	0xba8662a7	-0.0010252789
72	0xbd5de9b2	-0.054177947
73	0xbd55a2ba	-0.05215714
74	0xbd0195eb	-0.031637114
75	0x3bff9b94	0.007800529
76	0x3d2ef330	0.04271239
77	0x3d4ecbbb	0.05048726
78	0xbdcb114b	-0.09915408
79	0x3cf068c9	0.02934684
80	0x3c73c8d6	0.014879426
81	0xbd5abb0d	-0.05340104
82	0x3d383196	0.044969164
83	0xbc666d62	-0.014064165
84	0x3bc451b2	0.005991184
85	0xbd5d569a	-0.054037668
86	0x3c9ab3a0	0.01888448
87	0xbd139e88	-0.03603986
88	0x3d1c57a0	0.038169503
89	0x3d2aaa4e	0.04166632
90	0x3d420672	0.047369428
91	0xbcf8bd95	-0.030363837
92	0x3d437387	0.047717597
93	0x3ce4d646	0.027934205
94	0xbc8ee52d	-0.017443264
95	0x3cd03944	0.025417931
96	0xbd235fc1	-0.03988624
97	0xbd641297	-0.05568179
98	0xbd2a8d81	-0.041638855
99	0xbd98008f	-0.074219815
100	0x3c07c0ac	0.008285683
101	0xbd09c9ed	-0.033639837
102	0xbcc7f62f	-0.024409382
103	0xbd8d761a	-0.06907292
104	0xbd974939	-0.07387013
105	0xbdabb6c1	-0.08384467
106	0xbca4d536	-0.020121198
107	0xbd7639af	-0.060113605
108	0xbd5d32d6	-0.05400356
109	0x3d62871b	0.055304628
110	0x3c294052	0.010330277
111	0xbdcd734b	-0.10031756
112	0x3d5346aa	0.051581062
113	0xbd90f7dc	-0.070785254
114	0xbaa31624	-0.0012442512
115	0xbd19107a	-0.03736923
116	0x3d4b1c7b	0.049587708
117	0x3dbdb0cc	0.09262237
118	0x3da29c7c	0.07940003
119	0xba628b55	-0.0008641978
120	0xbc08de7e	-0.0083538275
121	0xbcfc0232	-0.030762766
122	0xbd7c85db	-0.061651092
123	0xba57a7d4	-0.00082266075
124	0x39ec6f4a	0.00045096345
125	0x3cd65e66	0.02616806
126	0xbcc12a91	-0.023579868
127	0x3db29a55	0.08720843
128	0x3d90b82a	0.070663765
129	0x3d7dceea	0.061964907
130	0xbc35e728	-0.011102475
131	0xbcce9c78	-0.025221094
132	0xbca84bb7	-0.020543916
133	0x3d630b87	0.055430915
134	0xbd9856f6	-0.074384615
135	0xbdc17556	-0.09446208
136	0x3b89db9f	0.004207089
137	0xbcffccca	-0.03122558
138	0xb89ee298	-7.5762335e-05
139	0xbd300763	-0.042975795
140	0xbd9ebd71	-0.07750977
141	0xbd1f5b46	-0.038905405
142	0x3d8c065f	0.06837153
143	0x3d26ef6f	0.040755685
144	0xbb3b902d	-0.002861987
145	0x3d4f3ba5	0.05059399
146	0x3bd7d812	0.006587037
147	0x3d07eabe	0.033182852
148	0x3d35f30a	0.044421233
149	0xbd8c0798	-0.06837386
150	0xbdc318cc	-0.09526214
151	0x3d2eec35	0.042705733
152	0xbca3f355	-0.02001349
153	0x3d025f37	0.031829085
154	0x3d19a9fd	0.03751563
155	0xbbe63ceb	-0.007026305
156	0xbdb2165b	-0.0869567
157	0x3d8d6436	0.06903879
158	0xbd3c0a2a	-0.04590813
159	0x3d8f7733	0.07005157
160	0xbd8465f5	-0.06464759
161	0x3dc4ccf0	0.09609401
162	0xbdab3751	-0.0836016
163	0x3d1cf4fa	0.038319565
164	0x3d2bac73	0.041912507
165	0xbdef3029	-0.11679108
166	0x3cef937c	0.02924513
167	0x3d92b90e	0.07164203
168	0xbd26f89e	-0.040764444
169	0x3d047643	0.032339346
170	0xbd7de5cd	-0.061986733
171	0x3d3da46d	0.046299387
172	0xbc88fb30	-0.016721338
173	0xbd0e5e31	-0.034757797
174	0xbda24337	-0.079229765
175	0xbc839a7d	-0.016064877
176	0x3b16c030	0.0023002736
177	0x3d1fc87d	0.03900956
178	0x3c59c72a	0.013292113
179	0x3db9ed11	0.0907842
180	0x3d4678f1	0.048455182
181	0xbd02c71d	-0.03192817
182	0xbc457adc	-0.012053218
183	0x3d134fdf	0.035964843
184	0x3ba46a88	0.0050175823
185	0x3cc081b2	0.023499344
186	0xbd8e4a05	-0.06947712
187	0xbc473748	-0.012159176
188	0xbd41059a	-0.047124483
189	0xbd92e18f	-0.07171928
190	0x3c16c210	0.009201542
191	0xbccb9c89	-0.024854915
192	0xbc710d9f	-0.01471272
193	0xbdb730e6	-0.089448735
194	0xbd5ee949	-0.054421697
195	0x3d894a2f	0.067036025
196	0xbd0a30a2	-0.033737786
197	0x3c98e9d2	0.018666182
198	0xbb95634a	-0.0045589553
199	0x3ac67084	0.0015139733
200	0xbd634bbf	-0.05549216
201	0xbca10ac1	-0.019658448
202	0xbd4b9a34	-0.049707606
203	0x3a1ad59b	0.00059064635
204	0x3d9d353f	0.076761715
205	0x3d2effd8	0.04272446
206	0xbd9bd0f5	-0.07608215
207	0xbd5cff87	-0.053954627
208	0x3c099462	0.008397194
209	0xbd8004b2	-0.062508956
210	0xbcc78c6b	-0.024358949
211	0xbd62abeb	-0.055339735
212	0xbda90211	-0.08252347
213	0xbbfe212f	-0.0077554206
214	0xbdb1ec10	-0.086876035
215	0xbdbea99b	-0.093096934
216	0x3c007371	0.007840023
217	0x3cd9f8f2	0.026607964
218	0xbd34d36a	-0.044146933
219	0xbcda0245	-0.02661241
220	0xbd8a4f5e	-0.06753419
221	0xbc964926	-0.018345427
222	0x3d4c7dd4	0.049924687
223	0xbd639c2d	-0.055568863
224	0x3bc7cfa7	0.006097752
225	0x3d18cf5d	0.037307132
226	0x3d0fcbb1	0.035106365
227	0x3bf66570	0.0075194165
228	0xbd12da2e	-0.035852604
229	0xbcdad97e	-0.026715036
230	0x3d4b246b	0.049595278
231	0xbd10e1d2	-0.03537161
232	0xbd195db2	-0.03744287
233	0xbd850b0a	-0.06496246
234	0xbc7ad5ed	-0.015309793
235	0xbcd63de4	-0.026152559
236	0xbdae72a0	-0.08517957
237	0xbcc064d9	-0.023485588
238	0xbccc4a26	-0.0249377
239	0xbd961cfd	-0.07329748
240	0xbdc59bec	-0.0964888
241	0x3cdc2238	0.026871786
242	0xbd9e2dc6	-0.07723574
243	0xbd886697	-0.066601925
244	0xbcb2c7ab	-0.021823725
245	0xbdb75a10	-0.08952725
246	0x3db0c338	0.08630985
247	0xbd4a9a63	-0.04946364
248	0x3c6f2918	0.0145972
249	0x3b6a064d	0.0035709322
250	0xbd5bc10a	-0.053650893
251	0xbc2ddddc	-0.010611977
252	0x3db2f7bb	0.08738657
253	0x3da3a08c	0.07989606
254	0xbcbc4e92	-0.022986684
255	0x3c8db635	0.017298797

2.bias f4 [64]
0	0x3d81c884	0.063370734
1	0x3d2fda65	0.042932887
2	0xbd5b7bf4	-0.053585008
3	0xbced06bb	-0.028933873
4	0xbd0b36de	-0.033987872
5	0x3d3476d8	0.04405865
6	0x3d708ebc	0.058729872
7	0xbd86c011	-0.065796025
8	0xbbcffb32	-0.0063470835
9	0x3c9ed534	0.019388773
10	0x3cf257d9	0.029582905
11	0xbd89e680	-0.067334175
12	0x3d7ec5f8	0.062200516
13	0xbc0ceaf4	-0.008600939
14	0xbd811e44	-0.06304601
15	0xbd98f726	-0.07469015
16	0x3d90b3dd	0.07065556
17	0xbcbf5ffb	-0.023361197
18	0x3cb874ca	0.022516627
19	0xbd2d80a6	-0.042359017
20	0x3d27da62	0.04097975
21	0xbd474b58	-0.048655838
22	0xbcf09f9b	-0.02937298
23	0x3d262309	0.040560756
24	0xbd79e53e	-0.061009638
25	0x3d382eeb	0.04496662
26	0xbc8d904e	-0.017280724
27	0xbcc74862	-0.024326507
28	0xbd74c063	-0.059753787
29	0x3d064232	0.032777973
30	0xbd9d6f68	-0.07687265
31	0x3cfa053a	0.03052007
32	0xbd733857	-0.0593799
33	0x3cbf5b90	0.02335909
34	0xbbfbc002	-0.007682801
35	0xbd947a89	-0.07249934
36	0xbcc64bd6	-0.024206083
37	0xbd881135	-0.06643907
38	0x3d49d8c1	0.04927898
39	0xbbd1be54	-0.0064008627
40	0x3d01fa34	0.031732753
41	0x3cd2a6ec	0.02571436
42	0xbbb17868	-0.005415965
43	0xbb16c321	-0.002300449
44	0xbdb15d6b	-0.08660396
45	0x3d60a1bf	0.054841753
46	0xbda6fc92	-0.08153643
47	0x3d266203	0.040620815
48	0xbd66ab5c	-0.056315765
49	0x3d5a799e	0.05333864
50	0xbd2c83c2	-0.04211784
51	0xbd4d4611	-0.05011565
52	0xbd37eccb	-0.044903558
53	0xbd0c1b49	-0.03420571
54	0x3cd11dba	0.02552687
55	0xbdab1912	-0.08354391
56	0xbb2f60a3	-0.002676048
57	0xbd45933f	-0.048236128
58	0xbd646525	-0.05576052
59	0x3d9c7fa9	0.07641537
60	0xbd28b355	-0.04118665
61	0x3cc0bbf7	0.023527129
62	0xbd33b05b	-0.043869358
63	0x3d6eb8dd	0.058281768

3.weight f4 [64]
0	0x3f8b1fde	1.08691
1	0x3f8cefab	1.1010641
2	0x3f8cc89c	1.0998721
3	0x3f95ad86	1.169358
4	0x3f9171b4	1.1362824
5	0x3f90c3a0	1.13097
6	0x3f90901f	1.1293982
7	0x3f85d87d	1.0456692
8	0x3f8a22a2	1.0791819
9	0x3f91bc07	1.1385506
10	0x3f8b5c80	1.0887604
11	0x3f96113b	1.1724008
12	0x3f957a7d	1.1678005
13	0x3f925e40	1.1435013
14	0x3f8dcb59	1.1077682
15	0x3f8758ca	1.0573971
16	0x3f86c7b3	1.0529693
17	0x3f897ce0	1.0741234
18	0x3f8ca838	1.0988836
19	0x3f928abe	1.1448591
20	0x3f8df217	1.1089505
21	0x3f8a4dc7	1.0804986
22	0x3f98c10a	1.1933911
23	0x3f891ecc	1.0712523
24	0x3f8abe68	1.0839357
25	0x3f8e2d17	1.110751
26	0x3f8be204	1.092835
27	0x3f8dc6ac	1.1076255
28	0x3f8c97e4	1.0983853
29	0x3f964167	1.1738709
30	0x3f9afcc6	1.210839
31	0x3f86f9ae	1.0544946
32	0x3f8b4254	1.0879617
33	0x3f8a2f5b	1.0795702
34	0x3f8cc64c	1.0998015
35	0x3f8f790f	1.1208819
36	0x3f8e943b	1.1138986
37	0x3f9413ff	1.1568602
38	0x3f897a7a	1.0740502
39	0x3f8a6611	1.0812398
40	0x3f972a74	1.1809831
41	0x3f8ec70b	1.1154493
42	0x3f8cf8b4	1.1013398
43	0x3f95250d	1.1651932
44	0x3f9400a9	1.1562701
45	0x3f9196e2	1.1374171
46	0x3f892a4f	1.0716037
47	0x3f944eda	1.1586564
48	0x3f97ae70	1.1850109
49	0x3f914f91	1.1352407
50	0x3f8ad563	1.084637
51	0x3f91f1ab	1.1401876
52	0x3f88a47f	1.06752
53	0x3f968960	1.1760674
54	0x3f8e15c1	1.1100389
55	0x3f82b673	1.0211929
56	0x3f95abfc	1.169311
57	0x3f8dbd22	1.1073344
58	0x3f9532df	1.165615
59	0x3f8bc3ba	1.0919106
60	0x3f90bc8e	1.1307542
61	0x3f845f5a	1.0341599
62	0x3f927b09	1.1443797
63	0x3f900731	1.1252195

3.bias f4 [64]
0	0x3d4c9861	0.049950007
1	0x3d65ae7c	0.056074604
2	0x3d49aec0	0.04923892
3	0x3d9ef02b	0.07760652
4	0x3d809639	0.06278653
5	0x3dcf6211	0.101261266
6	0x3dc9a775	0.09846393
7	0x3cde969a	0.027171422
8	0x3d72e01b	0.059295755
9	0x3d6cd172	0.05781693
10	0x3d892486	0.066964194
11	0x3d973e7c	0.07384965
12	0x3d8d522b	0.06900438
13	0x3db9b15f	0.09067034
14	0x3d76859a	0.060186006
15	0x3d3fdcde	0.046841495
16	0x3cd321f7	0.025773032
17	0x3d11752e	0.035512142
18	0x3dc94da3	0.09829261
19	0x3db6b463	0.08921125
20	0x3d3c1626	0.04591956
21	0x3dcb80be	0.09936665
22	0x3e068543	0.13136773
23	0x3d285d46	0.041104577
24	0x3d51774b	0.051139157
25	0x3d42fdcb	0.047605317
26	0x3d845a21	0.06462503
27	0x3da01d00	0.07818031
28	0x3d852584	0.06501296
29	0x3e04ce6d	0.1296937
30	0x3df5e472	0.12006463
31	0x3ce0308f	0.027366905
32	0x3d052119	0.032502268
33	0x3d3a12d2	0.045428105
34	0x3dc5932e	0.09647213
35	0x3dc114fb	0.0942783
36	0x3d4d9f98	0.05020103
37	0x3ddf6726	0.10908346
38	0x3d81f7a5	0.063460626
39	0x3d534f85	0.051589508
40	0x3da4d83c	0.08049056
41	0x3d9ea48a	0.07746227
42	0x3d8632f0	0.06552684
43	0x3dc30cd2	0.0952393
44	0x3dda964c	0.10673198
45	0x3da9d873	0.082932375
46	0x3d20d24b	0.03926305
47	0x3dc7f127	0.09762793
48	0x3e0762c8	0.13221276
49	0x3db56f70	0.08859146
50	0x3d49ad33	0.04923744
51	0x3dcff2ce	0.10153733
52	0x3d1519cf	0.036401566
53	0x3dd684d3	0.10474553
54	0x3d821e43	0.06353428
55	0x3cb5bdfc	0.022185318
56	0x3e11eefe	0.14251325
57	0x3d9ecffe	0.07754515
58	0x3db15198	0.08658141
59	0x3db0fd44	0.086420566
60	0x3dab391c	0.08360502
61	0x3d21e9c8	0.03952959
62	0x3dd0a27a	0.1018724
63	0x3de16311	0.110052235

3.running_mean f4 [64]
0	0xbe6bf6ad	-0.23043318
1	0xbf1c2949	-0.61000496
2	0xbe87d8d9	-0.2653263
3	0xbe94ceaa	-0.29063922
4	0xbe0dc1fa	-0.13843527
5	0x3ee65df3	0.44993553
6	0xbebb43f1	-0.36575273
7	0x3e2df055	0.1698621
8	0xbebc7869	-0.36810616
9	0xbe4db04f	-0.20086788
10	0x3dfa19ab	0.12211927
11	0xbd83dfef	-0.06439196
12	0x3e371b50	0.17881513
13	0xbeda7c75	-0.42673078
14	0x3d199046	0.037491105
15	0xbe6063f3	-0.21913128
16	0xbe754ef3	-0.23955898
17	0xbe442066	-0.19152984
18	0xbe958fcb	-0.29211268
19	0xbe96eeb1	-0.29478982
20	0xbe8a9450	-0.27066278
21	0x3d753c24	0.059871808
22	0xbe9da8d8	-0.3079288
23	0xbe9792c9	-0.29604176
24	0xbeaaf738	-0.33391738
25	0x3e48766c	0.19576424
26	0x3e744ca7	0.23857366
27	0x3ba6058c	0.005066579
28	0xbeabfc40	-0.3359089
29	0xbd2aaa8b	-0.04166655
30	0xbee3245f	-0.44363686
31	0x3d35c15d	0.04437386
32	0xbda0e34e	-0.07855855
33	0xbe9f950a	-0.31168395
34	0x3cbd1abe	0.02308404
35	0xbe9b70ff	-0.30359647
36	0xbd910b3a	-0.070822194
37	0xbdbb7d49	-0.091547556
38	0xbeaeadc1	-0.3411694
39	0xbf2506de	-0.64463603
40	0xbc67ff50	-0.014159992
41	0x3e428ec6	0.18999776
42	0xbe26ef21	-0.16302158
43	0xbb8ce645	-0.004299911
44	0xbf03dd68	-0.51509714
45	0x3ebb83e6	0.36624068
46	0xbeb6f0d8	-0.35730624
47	0xbe84d92c	-0.2594694
48	0xbe6e62ad	-0.2327983
49	0x3e05d916	0.13071093
50	0xbea353cb	-0.31899866
51	0x3d5ac032	0.053405948
52	0x3d1b5a9e	0.037928216
53	0x3d4180f6	0.047242127
54	0xbeb832c3	-0.35976228
55	0x3e98d837	0.2985246
56	0x3e67f7d1	0.22653128
57	0xbe0a8dbb	-0.13530628
58	0xbea8c3bc	-0.32961833
59	0xbd5c1549	-0.053731237
60	0xbec1478f	-0.37749907
61	0x3cfb532e	0.030679312
62	0xbeb6807c	-0.356449
63	0xbecbc953	-0.39802036

3.running_var f4 [64]
0	0x3e75729d	0.23969503
1	0x3eb5f703	0.35540017
2	0x3e3574ec	0.17720383
3	0x3e2086c7	0.15676413
4	0x3e3a09be	0.18167779
5	0x3e5c9567	0.21541367
6	0x3e149ad8	0.14512193
7	0x3e97e421	0.29666236
8	0x3f130332	0.5742675
9	0x3e51a003	0.20471196
10	0x3eddae7b	0.4329718
11	0x3dca3512	0.098734036
12	0x3e15e7c4	0.14639193
13	0x3e950fcb	0.29113612
14	0x3e682753	0.22671251
15	0x3ea3c0b3	0.31982955
16	0x3e6c7317	0.23090778
17	0x3e604f63	0.21905284
18	0x3e27724d	0.16352196
19	0x3e8729b5	0.26399007
20	0x3e8abe9e	0.27098554
21	0x3ec5a5a5	0.3860294
22	0x3e897531	0.26847222
23	0x3e4a708b	0.19769494
24	0x3e1869d9	0.14884128
25	0x3e8b31c4	0.27186406
26	0x3dcf1f1d	0.10113356
27	0x3ed2efa5	0.4119846
28	0x3e23537c	0.15949816
29	0x3e22f441	0.15913488
30	0x3e87ad86	0.26499575
31	0x3eb34bf4	0.35018885
32	0x3e781d33	0.24229889
33	0x3e3cf2e7	0.18452035
34	0x3e87e431	0.26541284
35	0x3e637455	0.22212346
36	0x3e3425c6	0.17592534
37	0x3de4bea1	0.11169172
38	0x3ead91ad	0.33900204
39	0x3e101a7f	0.14072607
40	0x3e3c446a	0.18385473
41	0x3e35f311	0.17768504
42	0x3f084448	0.5322919
43	0x3eb2cfa5	0.34924045
44	0x3e16b16a	0.14716116
45	0x3e41aae9	0.18912853
46	0x3e583b35	0.21116336
47	0x3e2ac71f	0.16677521
48	0x3e124970	0.14285827
49	0x3e955220	0.2916422
50	0x3e9fbf5c	0.31200683
51	0x3ea52758	0.3225658
52	0x3e4bed98	0.19914854
53	0x3e4b96a8	0.1988169
54	0x3e52e1dc	0.20593971
55	0x3e675e7b	0.22594635
56	0x3eb94f99	0.3619354
57	0x3e88d289	0.26723126
58	0x3e1e5382	0.15461543
59	0x3e64829a	0.22315446
60	0x3e13e40d	0.14442463
61	0x3e9b504e	0.30334705
62	0x3e471716	0.194424
63	0x3e8e8be5	0.27841106

5.weight f4 [10, 64]
0	0xbdc4ceb7	-0.0960974
1	0xbe5c2cc0	-0.21501446
2	0xbb7a6414	-0.0038206624
3	0x3c4ed790	0.012624636
4	0x3cfbd11f	0.030739365
5	0xbdee59d1	-0.11638225
6	0xbcadec0b	-0.021230718
7	0xbd6e6c0c	-0.05820851
8	0x3e638e9a	0.22222367
9	0x3d44a111	0.048005167
10	0x3ea74176	0.3266713
11	0xbe547962	-0.20749429
12	0x3da4ab13	0.08040442
13	0xbdea1e0c	-0.11431512
14	0xbe112843	-0.14175515
15	0xbdbda3d0	-0.092597604
16	0x3d846b1d	0.06465743
17	0xbe06a6e1	-0.13149597
18	0xbd97d423	-0.07413509
19	0xbd3ab1ac	-0.045579597
20	0x3c9acadd	0.01889556
21	0xbe83696b	-0.25666365
22	0xbe3fd4a3	-0.18733458
23	0xbc8e0cd1	-0.017340096
24	0x3eb70508	0.35746026
25	0xbd1287eb	-0.035774153
26	0x3d85fe15	0.06542603
27	0x3e2a2246	0.16614637
28	0x3eafb3d9	0.343169
29	0xbe5a38d0	-0.21310735
30	0xbe2af1b2	-0.16693762
31	0x3d52d1fc	0.051469788
32	0xbe0ec222	-0.13941243
33	0x3ecc3cc6	0.39890116
34	0xbd5937e7	-0.05303183
35	0x3e5b049c	0.21388477
36	0xbd8b326d	-0.06796727
37	0xbcdcf089	-0.026970165
38	0xbe592d88	-0.21208775
39	0x3d7a261d	0.061071504
40	0xbce1c994	-0.02756194
41	0xbdeebd22	-0.11657168
42	0x3dda15e2	0.10648705
43	0x3e780d79	0.2422389
44	0xbd66af67	-0.05631962
45	0x3c01b68f	0.0079170605
46	0x3d8cfb34	0.06883851
47	0xbe796db8	-0.2435826
48	0x3da3344a	0.07968958
49	0x3ca4040f	0.020021467
50	0xbbe7dd4d	-0.0070759417
51	0x3ea10ba6	0.314542
52	0xbe0d19d1	-0.1377938
53	0xbd9345a6	-0.07191019
54	0xbe1bb249	-0.15204729
55	0x3e2c0e82	0.1680241
56	0xbe4dd2ab	-0.20099895
57	0x3e2d0af5	0.16898711
58	0x3edc30d0	0.4300599
59	0x3e7ba216	0.2457355
60	0x3eee7361	0.46572402
61	0xbe514d3a	-0.20439616
62	0x3dd7eeec	0.105436176
63	0xbe0412bb	-0.1289777
64	0x3ebe2bc7	0.37142774
65	0x3e98c830	0.2984023
66	0xbe05da0b	-0.13071458
67	0xbe26ec0f	-0.16300987
68	0x3e59dd51	0.21275832
69	0xbe075984	-0.13217741
70	0xbe55a742	-0.20864585
71	0x3e4e4ff5	0.20147689
72	0x3e087cc3	0.13328843
73	0xbda582a6	-0.0808156
74	0x3d359adb	0.044337135
75	0xbdc87b8b	-0.09789189
76	0xbe1cb07f	-0.15301703
77	0xbe63857a	-0.22218886
78	0x3c65e0b0	0.01403062
79	0x3e3e32b5	0.1857403
80	0x3e948c23	0.29013166
81	0xbdbb2085	-0.09137062
82	0xbd5694ec	-0.052388117
83	0xbe1c3d26	-0.15257701
84	0xbd834e5d	-0.06411431
85	0xbcd89cc9	-0.026441948
86	0xbdba4065	-0.090943135
87	0x3e9e995f	0.30976388
88	0x3c9a1a4c	0.018811367
89	0x3bd5b668	0.0065219887
90	0xbe4b4f7c	-0.1985454
91	0x3e8b2730	0.27178335
92	0xbdce7f5a	-0.10082884
93	0xbdc17874	-0.09446803
94	0xbe4dc0f6	-0.2009314
95	0x3d6db3d0	0.05803281
96	0x3cb4021d	0.021973664
97	0x3c3cb76d	0.0115183415
98	0xbe39d308	-0.18146908
99	0xbe10c7af	-0.14138673
100	0x3ec8c651	0.39213803
101	0xbe2a4fa4	-0.16631943
102	0x3e5674ba	0.20942965
103	0x3e591dc9	0.21202768
104	0xbdd93ebc	-0.10607669
105	0xbe03e40f	-0.12879966
106	0x3d699a47	0.057031896
107	0x3c42b5e7	0.011884189
108	0xbde1f3b9	-0.110328145
109	0xbda053c4	-0.07828477
110	0xbdc4c200	-0.09607315
111	0xbde94bc2	-0.11391403
112	0x3eadec16	0.33969182
113	0x3da23b08	0.079214156
114	0x3df07206	0.11740498
115	0xbe4a0565	-0.1972862
116	0xbe18c66f	-0.14919446
117	0xbe115cda	-0.14195576
118	0xbdc81ffd	-0.09771726
119	0x3dd1cc0f	0.10243999
120	0xbe1d36ee	-0.15352985
121	0xbe159917	-0.1460918
122	0xbdbcbcfb	-0.09215733
123	0xbe1c0b62	-0.15238717
124	0xbdbf60dd	-0.09344647
125	0x3df1c9a7	0.1180604
126	0x3eb5b366	0.35488433
127	0x3e81b9d0	0.25337076
128	0xbd7ca659	-0.06168208
129	0xbd6a2483	-0.057163727
130	0xbda98408	-0.08277136
131	0xbe228053	-0.15869264
132	0xbe060532	-0.1308792
133	0x3eb71dcd	0.35764924
134	0x3e8941fd	0.26808158
135	0xbc8d60c3	-0.017258054
136	0xbd94701b	-0.07247945
137	0xbde1c0ac	-0.11023077
138	0xbc4e3e12	-0.012588041
139	0x3e6a1c58	0.22862375
140	0xbdb0e374	-0.08637133
141	0xbdeaa56e	-0.114573345
142	0xbd91dea7	-0.07122546
143	0x3d1cb0dd	0.038254607
144	0xbddd597d	-0.10808084
145	0xbd1e7124	-0.038682118
146	0xbe72667f	-0.23671912
147	0xbe0be620	-0.13662004
148	0x3d0bfd2a	0.034176983
149	0x3e09166a	0.13387457
150	0x3db13719	0.08653087
151	0xbd2ae043	-0.04171778
152	0xbe0eae64	-0.13933712
153	0xbe24a9c3	-0.16080384
154	0xbe4bbf33	-0.19897155
155	0xbdf6483f	-0.120254986
156	0xbb9b249b	-0.0047345883
157	0xbd7f1edc	-0.06228529
158	0xbe25ae1e	-0.16179702
159	0xbccf9201	-0.025338175
160	0xbe07182a	-0.13192812
161	0xbde62daf	-0.11239182
162	0x3dc02f95	0.093840756
163	0x3e952bbd	0.29134932
164	0x3b4cef31	0.00312705
165	0x3dfc15ef	0.12308871
166	0xbe0deb68	-0.13859332
167	0xbd762361	-0.060092334
168	0xbe1b1f64	-0.15148693
169	0xbe0ac432	-0.13551405
170	0xbe34cdd5	-0.17656644
171	0x3e1c7fe2	0.15283158
172	0x3e94256d	0.28934804
173	0x3f07d873	0.5306465
174	0x3cd3d16e	0.0258567
175	0x3ef88617	0.48539802
176	0x3e911255	0.283343
177	0x3e4308bc	0.190463
178	0x3d86a84b	0.06575068
179	0x3ea7f74b	0.32805857
180	0x3b95e276	0.0045741154
181	0x3ecd24d8	0.40067172
182	0xbe382b7f	-0.17985342
183	0x3da44817	0.080215625
184	0x3da79555	0.0818278
185	0x3d732559	0.05936179
186	0x3eafdcaa	0.3434804
187	0xbe593421	-0.21211292
188	0xbd8b7a09	-0.06810386
189	0xbdebb23e	-0.115086064
190	0xbe3d7b87	-0.18504153
191	0xbde51166	-0.11184959
192	0x3baffa5e	0.0053704223
193	0xbd695588	-0.056966335
194	0x3ead786c	0.33880937
195	0x3e79e609	0.24404158
196	0xbe12841c	-0.14308208
197	0xbdfdf776	-0.12400715
198	0x3e3547f4	0.17703229
199	0xbe5baacc	-0.21451873
200	0xbdb8bc19	-0.09020252
201	0xbc1012be	-0.008793531
202	0xbd9be659	-0.07612295
203	0xbe063267	-0.13105164
204	0xbde0e722	-0.10981585
205	0x3ec50e85	0.3848764
206	0xbd3b8e88	-0.045790225
207	0x3e272b39	0.16325082
208	0x3d05899b	0.032601934
209	0x3c10519b	0.008808519
210	0x3e9ea02a	0.3098157
211	0xbe05321b	-0.13007395
212	0x3dc65976	0.09685032
213	0x3dc5fb67	0.09667092
214	0x3ef50adb	0.47859845
215	0x3e51f520	0.20503664
216	0xbc0c870f	-0.008577122
217	0xbb4099da	-0.0029388578
218	0x3d8abf9c	0.06774828
219	0xbd9fc508	-0.078012526
220	0x3e3a0d73	0.18169193
221	0x3e754111	0.23950602
222	0xbcb82c53	-0.022482073
223	0xbe1432b9	-0.14472474
224	0xbe02c4d6	-0.127704
225	0xbdbc3390	-0.09189522
226	0x3d4ec7d7	0.05048355
227	0xb97bc977	-0.00024012277
228	0xbe414cd4	-0.18876964
229	0xbdee1b27	-0.11626273
230	0xbe3c7ff6	-0.18408188
231	0x3e80dce7	0.25168535
232	0xbe17dd82	-0.14830592
233	0xbcad61bd	-0.02116477
234	0xbe182e49	-0.14861406
235	0xbe4b8eca	-0.19878688
236	0x3f003504	0.50080895
237	0x3d484fb3	0.048904132
238	0xbe462e82	-0.19353679
239	0xbe154e59	-0.14580669
240	0xbe18815a	-0.14893094
241	0x3d37fcc0	0.044918776
242	0xbe12823e	-0.14307496
243	0xbcd55295	-0.026040355
244	0xbd960014	-0.07324234
245	0x3c65d51c	0.01402786
246	0x3d7d35bc	0.061818823
247	0x3cc79872	0.024364684
248	0x3e3a88e7	0.18216287
249	0x3db3643f	0.08759355
250	0xbe0d9362	-0.13825753
251	0xbcd04707	-0.025424493
252	0xbe3e28c0	-0.18570232
253	0xbd9bae20	-0.07601571
254	0x3e3740bd	0.1789579
255	0x3e4a3e61	0.19750358

5.bias f4 [10]
0	0xbdf29632	-0.11845054
1	0xbe3ad7ab	-0.18246333
2	0x3d7bd875	0.061485726
3	0x3e314d3e	0.17314622
4	0xbd58723b	-0.052843314
5	0xbc1b78bf	-0.009489237
6	0x3d96e13b	0.07367178
7	0x3dabb71f	0.08384537
8	0x3d02617f	0.03183126
9	0x3d21a40b	0.039463084
